SnakeLearning/model/model.pth (torch, 16799 bytes, 4 tensors)

linear1.weight f4 [256, 11]
-0.13504666 0.5024875 -0.098207414 -0.084716395 0.4088236 -0.1953794 -0.12440363 0.013438928
-0.22716682 0.27360067 -0.13908833 0.32162318 0.019249381 0.15415342 -0.3029407 0.37439945
0.012511845 0.21069655 0.32035062 -0.34223768 -0.28749087 -0.16270076 -0.33181784 0.54060966
-0.033562582 -0.07772006 -0.27627292 0.13274875 -0.1360581 0.13132006 0.14662357 0.2740967
0.08235122 0.50862193 0.13045284 -0.5151732 -0.08191989 0.10959403 0.25736043 0.19849776
0.017900681 -0.16887102 -0.39595917 0.08504388 -0.16479303 -0.13023506 -0.3094936 0.33661464
0.460812 -0.060486775 -0.060325228 0.20063467 0.12067754 -0.64041024 -0.4786024 -0.11424309
0.44814563 -0.35046676 0.18838274 -0.30443007 0.037131406 0.08165352 0.12689792 -0.38666263
-0.42937323 -0.08269835 0.29284313 0.4373349 0.0140004745 -0.054848958 -0.13749287 -0.24007715
-0.058826696 0.42981386 0.42121246 0.5209307 0.35176986 0.38150376 -0.75774986 0.09988089
-0.2886253 0.13221698 0.5147104 -0.25058782 -0.27766877 0.032740504 -0.32100135 0.4286658
-0.34467703 0.32167318 0.3496807 0.23229808 0.12299839 0.15444793 0.01601058 0.10289951
0.46082973 0.09033933 -0.10513641 -0.123840496 -0.29759392 0.5238071 -0.20027292 0.14327998
-0.2139549 0.14499594 0.2718439 -0.06085364 -0.15088683 0.18597022 0.4998722 0.07124114
0.10008243 -0.21910729 -0.051842067 0.20648196 0.4087985 0.3328447 -0.23812193 -0.1683015
-0.2979152 -0.34188554 -0.06753807 0.30084407 0.25175583 -0.38903478 -0.018570418 0.1726267
-0.13005996 -0.6853154 0.13920386 -0.04164469 -0.3238762 -0.045210008 0.031504054 0.060103863
0.3155747 -0.35354164 -0.26980776 -0.33629134 0.3658746 -0.252442 -0.2830838 -0.099464014
0.09916273 0.29075167 0.0039514685 -0.14314327 -0.028053096 -0.026477184 0.16735612 0.22398384
0.11319528 -0.075454906 0.028347619 -0.0021989837 0.2093737 -0.27287406 0.26854986 0.13332441
-0.014927272 -0.16962646 0.2330422 -0.18427211 0.32379273 -0.05704728 -0.8021337 0.4917676
0.16563305 0.19690602 0.009761214 -0.2717518 -0.34807894 -0.098147735 0.2084777 0.17929818
0.10710764 0.007331966 -0.66489077 -0.16889048 0.25233603 0.27643928 -0.24934587 0.20503063
-0.35210356 0.17945983 -0.34916246 -0.2618843 0.48702833 -0.63403505 0.240156 0.1843774
0.26142183 -0.0035946849 0.06763459 0.006253724 0.037298616 -0.0137820495 0.3431957 0.0045765303
-0.06939898 -0.08121221 -0.34264103 0.37895706 0.09142308 0.22914396 0.22228482 -0.19072011
0.10014164 -0.3662568 0.21255067 -0.058731563 0.08411619 -0.045434766 -0.25414613 0.18232623
-0.15441625 0.16117378 0.062117342 -0.12021169 -0.21729773 -0.2862765 0.70151246 -0.21694991
0.07727052 -0.50793976 -0.07214368 0.21211801 0.013721823 -0.3204838 -0.013667144 0.31614137
0.16009733 0.3074015 0.01802151 0.0065729916 -9.932555e-05 -0.35307643 0.094812185 0.17302084
0.11841993 0.28922844 0.074905306 0.24431793 -0.23267365 -0.25168464 0.026623355 0.24942076
-0.34490618 0.30939892 -0.18376505 -0.22980374 -0.20843743 0.0546699 0.2251741 0.45476875
00000000: ac49 0abe 05a3 003f f820 c9bd ca7f adbd
00000010: 5451 d13e 8a11 48be 55c7 febd f32e 5c3c
00000020: 6b9e 68be 6315 8c3e 2c6d 0ebe cbab a43e
00000030: e1b0 9d3c 65da 1d3e 0b1b 9bbe 49b1 bf3e
00000040: 7bfe 4c3c d6c0 573e ff04 a43e c739 afbe
00000050: 0132 93be 079b 26be 07e4 a9be 6565 0a3f
00000060: eb78 09bd b22b 9fbd a573 8dbe 4aef 073e
00000070: d152 0bbe c478 063e 7d24 163e 6756 8c3e
00000080: c2a7 a83d 0c35 023f 6e95 053e 64e2 03bf
00000090: 9ec5 a7bd d672 e03d bfc4 833e ff42 4b3e
000000a0: 73a4 923c 86ec 2cbe 29bb cabe 7c2b ae3d
000000b0: 81bf 28be 575c 05be f275 9ebe c158 ac3e
000000c0: 8def eb3e fbc0 77bd 9617 77bd 2d73 4d3e
000000d0: c925 f73d edf1 23bf 600b f5be 48f8 e9bd
000000e0: 5873 e53e 6170 b3be 68e7 403e 42de 9bbe
000000f0: 1a17 183d f639 a73d 87f1 013e a5f8 c5be
00000100: cfd6 dbbe c15d a9bd 89ef 953e 5cea df3e
00000110: 3f62 653c 4da9 60bd eeca 0cbe c9d6 75be
00000120: 43f4 70bd 9010 dc3e 29a9 d73e b75b 053f
00000130: 2e1b b43e 7654 c33e e5fb 41bf 5a8e cc3d
00000140: b2c6 93be e363 073e 10c4 033f 0c4d 80be
00000150: 9a2a 8ebe e81a 063d 4a5a a4be 157a db3e
00000160: 8279 b0be 59b2 a43e 5909 b33e 8cdf 6d3e
00000170: 94e6 fb3d 9927 1e3e 9f28 833c fabc d23d
00000180: e0f1 eb3e d403 b93d c251 d7bd 16a0 fdbd
00000190: 3b5e 98be 3918 063f 5814 4dbe fdb7 123e
000001a0: fe16 5bbe d179 143e 202f 8b3e ab41 79bd
000001b0: 1482 1abe fa6e 3e3e 40ef ff3e e0e6 913d
000001c0: 04f8 cc3d a95d 60be 5958 54bd 0270 533e
000001d0: 094e d13e 9f6a aa3e 3cd6 73be 3a57 2cbe
000001e0: 5788 98be 9f0b afbe 6651 8abd 3c08 9a3e
000001f0: 24e6 803e 912f c7be fd20 98bc 0ec5 303e
00000200: 702e 05be d470 2fbf 758b 0e3e 9f93 2abd
00000210: 1ad3 a5be 212e 39bd 650a 013d 782f 763d
00000220: 0293 a13e 6903 b5be 3e24 8abe 612e acbe
00000230: ea53 bb3e 1440 81be 5cf0 90be cab3 cbbd
00000240: d415 cb3d 67dd 943e 527b 813b 2694 12be
00000250: 9bcf e5bc aee6 d8bc 675f 2b3e 055c 653e
00000260: edd2 e73d 1a88 9abd 4439 e83c d31c 10bb
00000270: 0f66 563e 26b6 8bbe 5e7f 893e 3286 083e
00000280: 8491 74bc 8fb2 2dbe 9da2 6e3e d4b1 3cbe
00000290: 29c8 a53e 69aa 69bd a258 4dbf f6c8 fb3e
000002a0: b69b 293e bba1 493e 80ed 1f3c 0d23 8bbe
000002b0: 6737 b2be ae01 c9bd 2e7b 553e f199 373e
000002c0: 405b db3d fd40 f03b 4836 2abf a0f1 2cbe
000002d0: 3032 813e 7389 8d3e 8654 7fbe 8df3 513e
000002e0: eb46 b4be 51c4 373e 6cc5 b2be b315 86be
000002f0: c75b f93e 1f50 22bf 74eb 753e 6ecd 3c3e
00000300: 15d9 853e ce94 6bbb 0184 8a3d 0aec cc3b
00000310: 6fc6 183d 1bce 61bc 59b7 af3e b8f6 953b
00000320: 0d21 8ebd 9652 a6bd a56e afbe a906 c23e
00000330: 063c bb3d b7a4 6a3e a29e 633e 224c 43be
00000340: 0f17 cd3d 0386 bbbe e2a6 593e 8290 70bd
00000350: 1c45 ac3d ce19 3abd 711f 82be bab3 3a3e
00000360: 4b1f 1ebe bd0a 253e c16e 7e3d 8c31 f6bd
00000370: 4c83 5ebe d592 92be 5296 333f 1e28 5ebe
00000380: 0240 9e3d 5708 02bf 11c0 93bd 7735 593e
00000390: 7fd1 603c 7416 a4be 28ec 5fbc 48dd a13e
000003a0: 8ef0 233e bb63 9d3e d9a1 933c 4062 d73b
000003b0: 004d d0b8 6fc6 b4be e42c c23d 602c 313e
000003c0: 2686 f23d c015 943e f467 993d 7b2e 7a3e
000003d0: 0042 6ebe cfdc 80be 3919 da3c 2868 7f3e
000003e0: 8b97 b0be 8969 9e3e e82c 3cbe ac51 6bbe
000003f0: 9f70 55be 8ced 5f3d 0a94 663e 73d7 e83e

linear1.bias f4 [256]
-0.2107597 -0.034455027 0.157329 0.1973915 0.3796093 0.2272088 -0.2887262 -0.3150421
-0.12557659 -0.0033621313 -0.13063222 0.4738056 -0.079669826 -0.0070170714 -0.11591071 0.42896137
-0.00789668 0.0794185 -0.12560742 -0.120488964 0.2814539 -0.1786632 -0.15106194 -0.07449827
-0.10290232 0.011635775 -0.19063167 0.14175113 0.15323316 -0.4872893 -0.28423288 0.02588244
-0.17141668 -0.22406706 0.11391007 -0.09290566 -0.074251585 0.069610104 0.2767174 -0.16918224
-0.19017501 -0.26969278 -0.1538382 -0.35145077 0.18959193 -0.2834122 -0.030589344 -0.22894734
0.1480935 0.1378782 -0.32011205 -0.09502844 0.0436462 0.18793489 -0.19504395 -0.325598
-0.1916504 0.18872039 0.039265893 0.030840818 -0.30501023 -0.16552585 -0.041924443 0.23064746
-0.4608011 -0.1615013 0.094175495 0.06736184 -0.045089155 -0.34365353 0.39208436 -0.28740472
0.15110396 0.03226188 0.51318294 -0.23041916 0.013117369 -0.19695018 -0.14657372 0.30924988
-0.061920848 0.029393015 -0.29876274 -0.299338 0.25185257 0.579177 0.09652861 -0.19776644
0.5878442 0.23027831 0.053878203 -0.22243966 -0.33322218 -0.20213391 -0.26955488 0.19559838
-0.19969955 -0.02606013 0.07765246 -0.15522715 -0.39942816 -0.0011000902 0.4372314 -0.2579996
0.029636934 0.029424408 0.017513236 -0.07163323 -0.28119445 -0.06115112 0.10692427 0.16241483
-0.084030084 0.022360763 -0.17089507 0.09790886 0.06165944 -0.1865243 0.020732954 -0.26590666
0.1893858 -0.028639762 0.550422 0.08194812 0.1940955 0.15797202 0.028675836 -0.14970922
-0.082906075 -0.2314678 -0.25168326 0.27351895 -0.42692772 -0.20308815 -0.33659753 -0.27623302
-0.21676092 0.002252947 -0.31638852 0.009888053 0.22883049 -0.31815976 -0.06576572 0.05000365
-0.10688139 -0.27599126 0.33672452 -0.1555491 0.012288965 -0.18401095 -0.23979023 -0.32585555
0.21406183 -0.15712032 -0.08488723 -0.2798325 -0.01948911 -0.24112265 -0.2898483 -0.3308324
-0.048135456 -0.3669797 0.1678683 -0.13519092 -0.21637428 -0.094199196 0.02067551 0.12881453
-0.07650839 0.038430337 -0.15680236 -0.29214707 0.06846043 0.06973913 -0.2536815 -0.049926464
-0.39061022 -0.26253572 -0.24066494 -0.07756478 0.1567618 -0.10488514 -0.1318717 0.049531687
0.12745127 -0.29887193 -0.2442648 -0.13681428 -0.10816292 -0.051868822 -0.16560929 -0.23440559
0.061958283 -0.29665053 -0.034352776 0.023581583 -0.087677926 0.0650153 -0.0068259053 -0.23942685
-0.06995943 -0.2561266 -0.037052527 -0.06922669 0.14506608 0.2553656 0.039270442 0.03250001
0.61004144 0.072922766 -0.009788541 0.08751217 -0.015568108 0.3980997 0.06065216 0.019509465
0.15904552 -0.19008029 -0.15770076 -0.10041711 -0.27789798 -0.10023958 0.8239171 0.04700586
0.22761905 -0.288647 0.16288148 -0.30921927 0.07256851 -0.23628895 -0.33110732 0.07774701
-0.034412466 0.26731277 -0.046040438 -0.31037822 -0.3973082 -0.19512863 0.16645733 -0.19264126
0.08735444 -0.076205604 -0.5027504 -0.052589823 -0.263641 -0.05498272 0.66911817 -0.20018756
0.095218666 -0.04449531 0.1104123 0.35036603 -0.228637 -0.15954857 -0.24740416 0.45297435
00000000: 64d1 57be b720 0dbd da1a 213e ff20 4a3e
00000010: 265c c23e 6ca9 683e ecd3 93be 334d a1be
00000020: 2697 00be 3457 5cbb 74c4 05be a696 f23e
00000030: ef29 a3bd 76ef e5bb 9862 edbd d3a0 db3e
00000040: 1461 01bc 2ba6 a23d 3b9f 00be ebc2 f6bd
00000050: ba1a 903e 7cf3 36be fbaf 1abe 8d92 98bd
00000060: 74be d2bd faa3 3e3c f334 43be 3527 113e
00000070: 27e9 1c3e fc7d f9be f986 91be 6907 d43c
00000080: db87 2fbe d671 65be af49 e93d 5345 bebd
00000090: 3711 98bd be8f 8e3d e7ad 8d3e 1c3e 2dbe
000000a0: 3dbd 42be 2c15 8abe c387 1dbe 5bf1 b3be
000000b0: 6324 423e 671b 91be 8196 fabc 2c71 6abe
000000c0: d3a5 173e f12f 0d3e bae5 a3be 459e c2bd
000000d0: 5cc6 323d 0172 403e 9ab9 47be c8b4 a6be
000000e0: 0140 44be eb3f 413e 46d5 203d e2a5 fc3c
000000f0: 4d2a 9cbe 9c7f 29be f7b8 2bbd d92e 6c3e
00000100: 1fee ebbe 9960 25be 15df c03d 01f5 893d
00000110: 68af 38bd 5bf3 afbe 48bf c83e b626 93be
00000120: ffba 1a3e 0825 043d f55f 033f 00f3 6bbe
00000130: 3cea 563c 4fad 49be 6c17 16be 0056 9e3e
00000140: b7a0 7dbd 9fc9 f03c 6ef7 98be d542 99be
00000150: d2f2 803e f244 143f cbb0 c53d 4983 4abe
00000160: f57c 163f 14ce 6b3e 64af 5c3d 39c7 63be
00000170: 199c aabe 31fc 4ebe 1903 8abe f14a 483e
00000180: 0a7e 4cbe 0e7c d5bc 4108 9f3d def3 1ebe
00000190: d981 ccbe e730 90ba cbdc df3e 8618 84be
000001a0: 28c9 f23c 750b f13c eb77 8f3c 71b4 92bd
000001b0: b8f8 8fbe 9979 7abd 1dfb da3d 1350 263e
000001c0: f717 acbd eb2d b73c 1eff 2ebe 7184 c83d
000001d0: 9c8e 7c3d 3a00 3fbe 28d8 a93c eb24 88be
000001e0: 5aee 413e ef9d eabc 75e8 0c3f 6ad4 a73d
000001f0: f9c0 463e 6bc3 213e 96e9 ea3c 604d 19be
00000200: a9ca a9bd e505 6dbe a1dc 80be ad0a 8c3e
00000210: 4596 dabe 57f6 4fbe 8356 acbe 6a6e 8dbe
00000220: 93f6 5dbe 2ea6 133b adfd a1be 8001 223c
00000230: 8a52 6a3e d6e5 a2be 2eb0 86bd a1d0 4c3d
00000240: a1e4 dabd ba4e 8dbe 2867 ac3e 4348 1fbe
00000250: a857 493c 5e6d 3cbe 928b 75be 8ad6 a6be
00000260: 0633 5b3e 26e4 20be 5bd9 adbd 3546 8fbe
00000270: a0a7 9fbc dbe8 76be ff66 94be dd62 a9be
00000280: af29 45bd c3e4 bbbe abe5 2b3e 7d6f 0abe
00000290: 3891 5dbe 82eb c0bd b05f a93c f5e7 033e
000002a0: 6eb0 9cbd 2169 1d3d cc90 20be 4d94 95be
000002b0: fb34 8c3d 64d3 8e3d 8be2 81be b17f 4cbd
000002c0: 10fe c7be 156b 86be df70 76be 49da 9ebd
000002d0: 2a86 203e 05ce d6bd 6009 07be bde1 4a3d
000002e0: 9682 023e be05 99be 8d20 7abe 0b19 0cbe
000002f0: 8584 ddbd 6774 54bd 7b95 29be 0508 70be
00000300: f8c7 7d3d 94e2 97be 7fb5 0cbd 2a2e c13c
00000310: 7c90 b3bd be26 853d d8ab dfbb 502c 75be
00000320: e446 8fbd 0723 83be 64c4 17bd b9c6 8dbd
00000330: 348c 143e 48bf 823e 0bda 203d bb1e 053d
00000340: ad2b 1c3f 8858 953d 1e60 20bc 9539 b33d
00000350: 6111 7fbc b9d3 cb3e 666e 783d 50d2 9f3c
00000360: d4dc 223e 68a4 42be 4f7c 21be 7ca7 cdbd
00000370: a548 8ebe 694a cdbd 3bec 523f 3789 403d
00000380: f814 693e 8ac9 93be 67ca 263e fd51 9ebe
00000390: cd9e 943d bbf5 71be e686 a9be d339 9f3d
000003a0: 16f4 0cbd 38dd 883e e694 3cbd e5e9 9ebe
000003b0: fb6b cbbe cdcf 47be ca73 2a3e c043 45be
000003c0: e2e6 b23d af11 9cbd 40b4 00bf 6d68 57bd
000003d0: f4fb 86be 9035 61bd 544b 2b3f f8fd 4cbe
000003e0: 0102 c33d b740 36bd d81f e23d 2d63 b33e
000003f0: d11f 6abe b360 23be 8457 7dbe 41ec e73e

linear2.weight f4 [3, 256]
-0.2034311 -0.30513233 0.065783806 0.013372405 0.51053274 0.15652518 -0.28285468 -0.19575681
0.067680635 0.027799578 -0.23740877 0.38255113 0.2792767 -0.00845082 0.07656588 0.17547953
-0.003554993 0.121666975 -0.29686552 -0.015931923 0.28667226 -0.10141989 -0.08433342 -0.18859124
-0.22916591 -0.46587494 0.023899546 0.005178269 0.13664599 -0.37298763 0.020181913 -0.15630642
0.38366035 -0.06750293 -0.5095821 0.2580421 0.0939157 0.28474548 0.44422555 0.23762946
-0.21952677 -0.124952465 -0.022718102 -0.094351515 0.43057206 -0.04570654 0.26908824 0.00089129806
0.16842751 0.015565848 0.019009456 -0.40894127 0.047544364 0.13389891 -0.26577428 -0.45954707
-0.49300325 0.085395634 0.04544297 -0.40216672 -0.1264602 0.008441204 0.39444706 0.11733738
-0.19745518 -0.15330507 0.0011753115 -0.018604148 0.25020128 -0.18463409 0.19724469 0.022440806
0.5212114 -0.13969302 0.1897183 -0.0121364 -0.058803678 -0.26792508 -0.3246304 0.61454993
0.17946635 0.19642784 -0.10910131 -0.14566764 0.25267866 0.19545001 0.38634244 0.14218038
0.2756792 0.092747465 0.05231137 -0.066071205 0.0011102717 -0.5533644 -0.41166708 0.4740175
-0.11529005 0.15612724 0.4080393 -0.30121487 -0.27242032 -0.38409755 0.34787324 0.062377147
-0.3231866 -0.26769456 -0.1189156 -0.066548795 -0.03373073 -0.1471291 0.055212516 0.1037991
0.0017259893 0.1867962 -0.2517332 -0.5944833 -0.59335625 -0.12581536 0.22742143 -0.05993028
0.07390006 -0.32591987 0.4922874 -0.17972472 0.38737217 -0.62039626 -0.36075446 -0.40241274
-0.18685059 -0.21503814 0.0039325915 0.044924073 -0.16867968 -0.19999783 0.023017243 0.02271998
-0.40610543 0.402829 -0.2516916 -0.3413087 0.23275031 0.012196948 -0.068890646 -0.16346514
-0.2979709 -0.18129548 0.33496487 -0.0665476 -0.40186277 -0.009817257 0.06878947 -0.120431446
0.15732203 -0.08051184 -0.5224043 -0.2013919 -0.07718861 -0.2937925 -0.4139978 -0.007614949
0.18653987 -0.060003377 0.0056102094 -0.2953926 -0.28878933 0.034381784 0.22233589 0.08035142
-0.21379514 0.03530093 0.1539925 0.0044705346 -0.6350722 0.4260449 -0.17940898 -0.49264044
-0.17723462 -0.12702017 -0.014530524 -0.13243417 0.3994351 -0.41146976 -0.060651924 0.14197157
0.04118572 0.23878735 -0.17432867 -0.10605973 -0.6319453 0.4442118 0.020765774 -0.2224931
0.5856942 0.026770733 0.14097972 -0.47403443 -0.40669474 0.04356335 -0.13040356 -0.18558839
-0.18534905 0.06587735 -0.033534367 0.260004 0.2771571 0.10204556 0.13315189 0.19453047
0.32253596 0.051334944 0.027400168 0.010830645 0.014136787 0.4454011 0.077887036 0.2454844
0.1567654 -0.2411402 -0.38725746 -0.06428796 -0.15626957 -0.26616186 0.3106568 0.51737887
0.21778856 -0.46690795 0.35014307 0.018326877 -0.41974658 -0.17507562 -0.21536134 0.36802125
-0.10187408 0.28074342 0.039148748 0.03556626 0.034265082 -0.039164588 0.40212375 -0.109537646
0.049023908 0.18347448 -0.1889516 -0.340982 -0.42097345 -0.4595089 0.4013816 0.12947322
0.34382203 0.17530906 0.33510458 0.31196502 -0.08287686 0.16554491 -0.16325548 0.60977507
00000000: 3e50 50be 4e3a 9cbe a9b9 863d ef17 5b3c
00000010: 46b2 023f 2348 203e 54d2 90be 7974 48be
00000020: 259c 8a3d f1bb e33c 491b 73be bedd c33e
00000030: 5bfd 8e3e 4f75 0abc 92ce 9c3d e8b0 333e
00000040: e3fa 68bb 892c f93d c2fe 97be aa83 82bc
00000050: b5c6 923e 3bb5 cfbd 00b7 acbd 101e 41be
00000060: 78aa 6abe 2987 eebe fbc8 c33c 78ae a93b
00000070: edec 0b3e 3cf8 bebe 8a54 a53c ca0e 20be
00000080: 216f c43e fa3e 8abd f973 02bf 181e 843e
00000090: e056 c03d 29ca 913e 8871 e33e 2355 733e
000000a0: a0cb 60be 14e7 ffbd 501b babc 5e3b c1bd
000000b0: f173 dc3e c836 3bbd efc5 893e 00a6 693a
000000c0: 4378 2c3e e607 7f3c b8b9 9b3c c060 d1be
000000d0: e1bd 423d cc1c 093e 9113 88be c149 ebbe
000000e0: ec6a fcbe e8e3 ae3d 6822 3a3d cce8 cdbe
000000f0: c87e 01be fa4c 0a3c f7f4 c93e 954e f03d
00000100: b131 4abe 01fc 1cbe e90c 9a3a ba67 98bc
00000110: 621a 803e b810 3dbe 83fa 493e c8d5 b73c
00000120: 1c6e 053f b00b 0fbe 8445 423e c0d7 46bc
00000130: 20dc 70bd 7a2d 89be f535 a6be 2553 1d3f
00000140: 07c6 373e 6124 493e 8270 dfbd e629 15be
00000150: 195f 813e 0c24 483e adce c53e bc97 113e
00000160: d325 8d3e 62f2 bd3d 7244 563d 5750 87bd
00000170: 8986 913a 4aa9 0dbf 07c6 d2be 6cb2 f23e
00000180: 311d ecbd d2df 1f3e 87ea d03e d638 9abe
00000190: ad7a 8bbe 6fa8 c4be 711c b23e 2e7f 7f3d
000001a0: b778 a5be 430f 89be 068a f3bd bc4a 88bd
000001b0: 3c29 0abd 03a9 16be 8526 623d 9f94 d43d
000001c0: 973a e23a 8147 3f3e 2de3 80be 0f30 18bf
000001d0: 32e6 17bf bed5 00be 2ae1 683e 7479 75bd
000001e0: ea58 973d f8de a6be 180d fc3e c209 38be
000001f0: a555 c63e 4ad2 1ebf cfb4 b8be 0b09 cebe
00000200: c355 3fbe f532 5cbe f8dc 803b 4e02 383d
00000210: 5eba 2cbe 3bcc 4cbe a88e bc3c 401f ba3c
00000220: 0ded cfbe 9a3f ce3e b9dd 80be 04c0 aebe
00000230: 1956 6e3e b5d5 473c 8a16 8dbd 6863 27be
00000240: a48f 98be 86a5 39be 8480 ab3e 1c4a 88bd
00000250: f5c0 cdbe 8fd8 20bc 7ee1 8c3d c3a4 f6bd
00000260: 0719 213e 64e3 a4bd 4abc 05bf ae39 4ebe
00000270: 1015 9ebd f86b 96be 85f7 d3be d286 f9bb
00000280: 4f04 3f3e 1ac6 75bd d9d5 b73b b33d 97be
00000290: 32dc 93be ead3 0c3d 05ac 633e 498f a43d
000002a0: 1ded 5abe b597 103d 36b0 1d3e 907d 923b
000002b0: 1794 22bf 8f22 da3e fdb6 37be 5e3b fcbe
000002c0: fe7c 35be 9311 02be 6f11 6ebc d39c 07be
000002d0: c282 cc3e 2aac d2be 276e 78bd ff60 113e
000002e0: 5cb2 283d ac84 743e 3783 32be d835 d9bd
000002f0: 2bc7 21bf bb6f e33e fc1c aa3c 3bd5 63be
00000300: 0ef0 153f 4c4e db3c fd5c 103e a4b4 f2be
00000310: 4b3a d0be 7c6f 323d 8388 05be e20a 3ebe
00000320: 24cc 3dbe b4ea 863d 555b 09bd 3f1f 853e
00000330: 89e7 8d3e 43fd d03d f858 083e ff32 473e
00000340: 6f23 a53e 9744 523d 5176 e03c 0573 313c
00000350: fb9d 673c 9d0b e43e 3d83 9f3d 4360 7b3e
00000360: 1c87 203e 75ed 76be 9c46 c6be 68a9 83bd
00000370: 2105 20be 5e46 88be 680e 9f3e f172 043f
00000380: f703 5f3e 8f0e efbe f445 b33e 3f22 963c
00000390: 06e9 d6be 0647 33be af87 5cbe 486d bc3e
000003a0: 5ca3 d0bd 9abd 8f3e 705a 203d edad 113d
000003b0: 8b59 0c3d 0c6b 20bd 2ae3 cd3e 4655 e0bd
000003c0: 4bcd 483d bce0 3b3e 877c 41be 3195 aebe
000003d0: d589 d7be c044 ebbe e481 cd3e a194 043e
000003e0: 7109 b03e 3884 333e d492 ab3e e1b9 9f3e
000003f0: 58bb a9bd 9b84 293e 722c 27be 381a 1c3f

linear2.bias f4 [3]
0.18616934 0.17346406 0.07718171
00000000: 2da3 3e3e 90a0 313e 7211 9e3d
